…
;strong&gt;&lt;em&gt;_&lt;/em&gt;&lt;/strong&gt;&lt;strong&gt;&lt;em&gt;_&lt;/em&gt;&lt;/strong&gt;&lt;strong&gt;&lt;em&gt;_&lt;/em&gt;&lt;/strong&gt;&lt;strong&gt;&lt;em&gt;_&lt;/em&gt;&lt;/strong&gt;&lt;strong&gt;&lt;em&gt;_&lt;/em&gt;&lt;/strong&gt;&lt;strong&gt;&lt;em&gt;_&lt;/em&gt;&lt;/strong&gt;&lt;strong&gt;&lt;em&gt;_&lt;/em&gt;&lt;/strong&gt;__
Layer (type)                     Output Shape          Param #     Connected to                   &lt;br&gt;
====================================================================================================
input_1 (InputLayer)             (None, 3, 4, 11)      0                                            &lt;/p&gt;
&lt;hr&gt;
&lt;p&gt;input_2 (InputLayer)            (None, 2, 3, 2)       0                                            &lt;/p&gt;
&lt;hr&gt;
&lt;p&gt;flatten_1 (Flatten)              (None, 132)           0           input_1[0][0]                    &lt;/p&gt;
&lt;hr&gt;
&lt;p&gt;flatten_2 (Flatten)             (None, 12)            0           input_2[0][0]                   &lt;/p&gt;
&lt;hr&gt;
&lt;p&gt;concatenate_1 (Concatenate)      (None, 144)           0           flatten_1[0][0]                &lt;br&gt;
                                                                   flatten_2[0][0]                 &lt;/p&gt;
&lt;hr&gt;
&lt;p&gt;dense_1 (Dense)                 (None, 128)           18560       concatenate_1[0][0]              &lt;/p&gt;
&lt;hr&gt;
&lt;p&gt;dense_2 (Dense)                 (None, 128)           16512       dense_1[0][0]                   &lt;/p&gt;
&lt;hr&gt;
&lt;p&gt;dense_3 (Dense)                 (None, 128)           16512       dense_2[0][0]                   &lt;/p&gt;
&lt;hr&gt;
&lt;p&gt;dense_4 (Dense)                 (None, 128)           16512       dense_3[0][0]                   &lt;/p&gt;
&lt;hr&gt;
&lt;p&gt;dense_5 (Dense)                 (None, 128)           16512       dense_4[0][0]                   &lt;/p&gt;
&lt;hr&gt;
&lt;p&gt;dense_6 (Dense)                 (None, 128)           16512       dense_5[0][0]                   &lt;/p&gt;
&lt;hr&gt;
&lt;h1&gt;dense_7 (Dense)                 (None, 97)            12513       dense_6[0][0]&lt;/h1&gt;
&lt;p&gt;Total params: 113,633
Trainable params: 113,633
Non-trainable params: 0
&lt;strong&gt;&lt;em&gt;_&lt;/em&gt;&lt;/strong&gt;&lt;strong&gt;&lt;em&gt;_&lt;/em&gt;&lt;/strong&gt;&lt;strong&gt;&lt;em&gt;_&lt;/em&gt;&lt;/strong&gt;&lt;strong&gt;&lt;em&gt;_&lt;/em&gt;&lt;/strong&gt;&lt;strong&gt;&lt;em&gt;_&lt;/em&gt;&lt;/strong&gt;&lt;strong&gt;&lt;em&gt;_&lt;/em
…
